nohup: ignoring input

Training Data Shape: (60000, 784)
Training Labels Shape: (60000,)
Class Labels: [0 1 2 3 4 5 6 7 8 9]
Class Distributions: [5923 6742 5958 6131 5842 5421 5918 6265 5851 5949]

Test Data Shape: (10000, 784)
Test Labels Shape: (10000,)
Class Labels: [0 1 2 3 4 5 6 7 8 9]
Class Distributions: [ 980 1135 1032 1010  982  892  958 1028  974 1009]
CNN(
  (conv1): Conv2d(1, 32, kernel_size=(3, 3), stride=(1, 1))
  (conv2): Conv2d(32, 32, kernel_size=(5, 5), stride=(1, 1))
  (conv3): Conv2d(32, 64, kernel_size=(5, 5), stride=(1, 1))
  (fc1): Linear(in_features=576, out_features=256, bias=True)
  (fc2): Linear(in_features=256, out_features=10, bias=True)
)
Epoch : 0 [0/60000 (0%)]	Loss: 10.250347	 Accuracy:3.125%
Epoch : 0 [1600/60000 (3%)]	Loss: 2.263988	 Accuracy:13.480%
Epoch : 0 [3200/60000 (5%)]	Loss: 1.624378	 Accuracy:21.132%
Epoch : 0 [4800/60000 (8%)]	Loss: 1.582654	 Accuracy:29.180%
Epoch : 0 [6400/60000 (11%)]	Loss: 0.969732	 Accuracy:36.007%
Epoch : 0 [8000/60000 (13%)]	Loss: 0.741654	 Accuracy:41.360%
…
  File "/opt/conda/lib/python3.7/site-packages/matplotlib/backends/backend_qt5.py", line 234, in __init__
    _create_qApp()
  File "/opt/conda/lib/python3.7/site-packages/matplotlib/backends/backend_qt5.py", line 125, in _create_qApp
    raise RuntimeError('Invalid DISPLAY variable')
RuntimeError: Invalid DISPLAY variable

Training Data Shape: (60000, 784)
Training Labels Shape: (60000,)
Class Labels: [0 1 2 3 4 5 6 7 8 9]
Class Distributions: [5923 6742 5958 6131 5842 5421 5918 6265 5851 5949]

Test Data Shape: (10000, 784)
Test Labels Shape: (10000,)
Class Labels: [0 1 2 3 4 5 6 7 8 9]
Class Distributions: [ 980 1135 1032 1010  982  892  958 1028  974 1009]
CNN(
  (conv1): Conv2d(1, 32, kernel_size=(3, 3), stride=(1, 1), dilation=(2, 2))
  (conv2): Conv2d(32, 32, kernel_size=(5, 5), stride=(1, 1))
  (conv3): Conv2d(32, 64, kernel_size=(5, 5), stride=(1, 1))
  (fc1): Linear(in_features=576, out_features=256, bias=True)
  (fc2): Linear(in_features=256, out_features=10, bias=True)
)
Traceback (most recent call last):
  File "mnist.py", line 270, in <module>
    fig1, axes1 = plt.subplots(nrows=3,ncols=4)
  File "/opt/conda/lib/python3.7/site-packages/matplotlib/pyplot.py", line 1184, in subplots
    fig = figure(**fig_kw)
  File "/opt/conda/lib/python3.7/site-packages/matplotlib/pyplot.py", line 533, in figure
    **kwargs)
  File "/opt/conda/lib/python3.7/site-packages/matplotlib/backend_bases.py", line 161, in new_figure_manager
…
  File "/opt/conda/lib/python3.7/site-packages/matplotlib/backends/backend_qt5.py", line 234, in __init__
    _create_qApp()
  File "/opt/conda/lib/python3.7/site-packages/matplotlib/backends/backend_qt5.py", line 125, in _create_qApp
    raise RuntimeError('Invalid DISPLAY variable')
RuntimeError: Invalid DISPLAY variable

Training Data Shape: (60000, 784)
Training Labels Shape: (60000,)
Class Labels: [0 1 2 3 4 5 6 7 8 9]
Class Distributions: [5923 6742 5958 6131 5842 5421 5918 6265 5851 5949]

Test Data Shape: (10000, 784)
Test Labels Shape: (10000,)
Class Labels: [0 1 2 3 4 5 6 7 8 9]
Class Distributions: [ 980 1135 1032 1010  982  892  958 1028  974 1009]
CNN(
  (conv1): Conv2d(1, 32, kernel_size=(3, 3), stride=(1, 1), dilation=(3, 3))
  (conv2): Conv2d(32, 32, kernel_size=(5, 5), stride=(1, 1))
  (conv3): Conv2d(32, 64, kernel_size=(5, 5), stride=(1, 1))
  (fc1): Linear(in_features=576, out_features=256, bias=True)
  (fc2): Linear(in_features=256, out_features=10, bias=True)
)
Epoch : 0 [0/60000 (0%)]	Loss: 12.463971	 Accuracy:9.375%
Epoch : 0 [1600/60000 (3%)]	Loss: 2.194534	 Accuracy:13.725%
Epoch : 0 [3200/60000 (5%)]	Loss: 1.980438	 Accuracy:23.608%
Epoch : 0 [4800/60000 (8%)]	Loss: 1.579982	 Accuracy:31.705%
Epoch : 0 [6400/60000 (11%)]	Loss: 1.128121	 Accuracy:37.578%
Epoch : 0 [8000/60000 (13%)]	Loss: 0.950060	 Accuracy:42.094%
…
  File "/opt/conda/lib/python3.7/site-packages/matplotlib/backends/backend_qt5.py", line 234, in __init__
    _create_qApp()
  File "/opt/conda/lib/python3.7/site-packages/matplotlib/backends/backend_qt5.py", line 125, in _create_qApp
    raise RuntimeError('Invalid DISPLAY variable')
RuntimeError: Invalid DISPLAY variable

Training Data Shape: (60000, 784)
Training Labels Shape: (60000,)
Class Labels: [0 1 2 3 4 5 6 7 8 9]
Class Distributions: [5923 6742 5958 6131 5842 5421 5918 6265 5851 5949]

Test Data Shape: (10000, 784)
Test Labels Shape: (10000,)
Class Labels: [0 1 2 3 4 5 6 7 8 9]
Class Distributions: [ 980 1135 1032 1010  982  892  958 1028  974 1009]
CNN(
  (conv1): Conv2d(1, 32, kernel_size=(3, 3), stride=(1, 1), dilation=(4, 4))
  (conv2): Conv2d(32, 32, kernel_size=(5, 5), stride=(1, 1))
  (conv3): Conv2d(32, 64, kernel_size=(5, 5), stride=(1, 1))
  (fc1): Linear(in_features=576, out_features=256, bias=True)
  (fc2): Linear(in_features=256, out_features=10, bias=True)
)
Epoch : 0 [0/60000 (0%)]	Loss: 12.425897	 Accuracy:9.375%
Epoch : 0 [1600/60000 (3%)]	Loss: 2.148524	 Accuracy:15.135%
Epoch : 0 [3200/60000 (5%)]	Loss: 2.177928	 Accuracy:24.783%
Epoch : 0 [4800/60000 (8%)]	Loss: 1.613228	 Accuracy:30.029%
Epoch : 0 [6400/60000 (11%)]	Loss: 1.586104	 Accuracy:34.562%
Epoch : 0 [8000/60000 (13%)]	Loss: 1.755974	 Accuracy:38.484%
…
  File "/opt/conda/lib/python3.7/site-packages/matplotlib/backends/backend_qt5.py", line 234, in __init__
    _create_qApp()
  File "/opt/conda/lib/python3.7/site-packages/matplotlib/backends/backend_qt5.py", line 125, in _create_qApp
    raise RuntimeError('Invalid DISPLAY variable')
RuntimeError: Invalid DISPLAY variable

Training Data Shape: (60000, 784)
Training Labels Shape: (60000,)
Class Labels: [0 1 2 3 4 5 6 7 8 9]
Class Distributions: [5923 6742 5958 6131 5842 5421 5918 6265 5851 5949]

Test Data Shape: (10000, 784)
Test Labels Shape: (10000,)
Class Labels: [0 1 2 3 4 5 6 7 8 9]
Class Distributions: [ 980 1135 1032 1010  982  892  958 1028  974 1009]
CNN(
  (conv1): Conv2d(1, 32, kernel_size=(3, 3), stride=(1, 1), dilation=(5, 5))
  (conv2): Conv2d(32, 32, kernel_size=(5, 5), stride=(1, 1))
  (conv3): Conv2d(32, 64, kernel_size=(5, 5), stride=(1, 1))
  (fc1): Linear(in_features=576, out_features=256, bias=True)
  (fc2): Linear(in_features=256, out_features=10, bias=True)
)
Epoch : 0 [0/60000 (0%)]	Loss: 12.282574	 Accuracy:28.125%
Epoch : 0 [1600/60000 (3%)]	Loss: 2.039191	 Accuracy:11.887%
Epoch : 0 [3200/60000 (5%)]	Loss: 1.938867	 Accuracy:14.790%
Epoch : 0 [4800/60000 (8%)]	Loss: 1.885573	 Accuracy:20.530%
Epoch : 0 [6400/60000 (11%)]	Loss: 1.949916	 Accuracy:26.399%
Epoch : 0 [8000/60000 (13%)]	Loss: 1.915470	 Accuracy:29.470%
…
  File "/opt/conda/lib/python3.7/site-packages/matplotlib/backends/backend_qt5.py", line 234, in __init__
    _create_qApp()
  File "/opt/conda/lib/python3.7/site-packages/matplotlib/backends/backend_qt5.py", line 125, in _create_qApp
    raise RuntimeError('Invalid DISPLAY variable')
RuntimeError: Invalid DISPLAY variable

Training Data Shape: (60000, 784)
Training Labels Shape: (60000,)
Class Labels: [0 1 2 3 4 5 6 7 8 9]
Class Distributions: [5923 6742 5958 6131 5842 5421 5918 6265 5851 5949]

Test Data Shape: (10000, 784)
Test Labels Shape: (10000,)
Class Labels: [0 1 2 3 4 5 6 7 8 9]
Class Distributions: [ 980 1135 1032 1010  982  892  958 1028  974 1009]
CNN(
  (conv1): Conv2d(1, 32, kernel_size=(3, 3), stride=(1, 1), dilation=(6, 6))
  (conv2): Conv2d(32, 32, kernel_size=(5, 5), stride=(1, 1))
  (conv3): Conv2d(32, 64, kernel_size=(5, 5), stride=(1, 1))
  (fc1): Linear(in_features=576, out_features=256, bias=True)
  (fc2): Linear(in_features=256, out_features=10, bias=True)
)
Epoch : 0 [0/60000 (0%)]	Loss: 25.088789	 Accuracy:6.250%
Epoch : 0 [1600/60000 (3%)]	Loss: 2.329169	 Accuracy:12.132%
Epoch : 0 [3200/60000 (5%)]	Loss: 1.877146	 Accuracy:16.027%
Epoch : 0 [4800/60000 (8%)]	Loss: 1.632838	 Accuracy:20.964%
Epoch : 0 [6400/60000 (11%)]	Loss: 1.782904	 Accuracy:26.182%
Epoch : 0 [8000/60000 (13%)]	Loss: 1.653705	 Accuracy:30.017%
…
  File "/opt/conda/lib/python3.7/site-packages/matplotlib/backends/backend_qt5.py", line 234, in __init__
    _create_qApp()
  File "/opt/conda/lib/python3.7/site-packages/matplotlib/backends/backend_qt5.py", line 125, in _create_qApp
    raise RuntimeError('Invalid DISPLAY variable')
RuntimeError: Invalid DISPLAY variable

Training Data Shape: (60000, 784)
Training Labels Shape: (60000,)
Class Labels: [0 1 2 3 4 5 6 7 8 9]
Class Distributions: [5923 6742 5958 6131 5842 5421 5918 6265 5851 5949]

Test Data Shape: (10000, 784)
Test Labels Shape: (10000,)
Class Labels: [0 1 2 3 4 5 6 7 8 9]
Class Distributions: [ 980 1135 1032 1010  982  892  958 1028  974 1009]
CNN(
  (conv1): Conv2d(1, 32, kernel_size=(3, 3), stride=(1, 1), dilation=(7, 7))
  (conv2): Conv2d(32, 32, kernel_size=(5, 5), stride=(1, 1))
  (conv3): Conv2d(32, 64, kernel_size=(5, 5), stride=(1, 1))
  (fc1): Linear(in_features=576, out_features=256, bias=True)
  (fc2): Linear(in_features=256, out_features=10, bias=True)
)
Epoch : 0 [0/60000 (0%)]	Loss: 12.097068	 Accuracy:6.250%
Epoch : 0 [1600/60000 (3%)]	Loss: 2.133676	 Accuracy:14.461%
Epoch : 0 [3200/60000 (5%)]	Loss: 1.450732	 Accuracy:22.030%
Epoch : 0 [4800/60000 (8%)]	Loss: 1.583569	 Accuracy:29.988%
Epoch : 0 [6400/60000 (11%)]	Loss: 1.238999	 Accuracy:35.976%
Epoch : 0 [8000/60000 (13%)]	Loss: 1.704409	 Accuracy:39.778%
…
  File "/opt/conda/lib/python3.7/site-packages/matplotlib/backends/backend_qt5.py", line 234, in __init__
    _create_qApp()
  File "/opt/conda/lib/python3.7/site-packages/matplotlib/backends/backend_qt5.py", line 125, in _create_qApp
    raise RuntimeError('Invalid DISPLAY variable')
RuntimeError: Invalid DISPLAY variable

Training Data Shape: (60000, 784)
Training Labels Shape: (60000,)
Class Labels: [0 1 2 3 4 5 6 7 8 9]
Class Distributions: [5923 6742 5958 6131 5842 5421 5918 6265 5851 5949]

Test Data Shape: (10000, 784)
Test Labels Shape: (10000,)
Class Labels: [0 1 2 3 4 5 6 7 8 9]
Class Distributions: [ 980 1135 1032 1010  982  892  958 1028  974 1009]
CNN(
  (conv1): Conv2d(1, 32, kernel_size=(3, 3), stride=(1, 1), dilation=(8, 8))
  (conv2): Conv2d(32, 32, kernel_size=(5, 5), stride=(1, 1))
  (conv3): Conv2d(32, 64, kernel_size=(5, 5), stride=(1, 1))
  (fc1): Linear(in_features=576, out_features=256, bias=True)
  (fc2): Linear(in_features=256, out_features=10, bias=True)
)
Traceback (most recent call last):
  File "mnist.py", line 265, in <module>
    fit(cnn, train_loader)
  File "mnist.py", line 171, in fit
    output = model(var_X_batch)
  File "/opt/conda/lib/python3.7/site-packages/torch/nn/modules/module.py", line 493, in __call__
    result = self.forward(*input, **kwargs)
  File "mnist.py", line 136, in forward
    x = F.relu(F.max_pool2d(self.conv3(x),2))
…
